new_src/pytorch_models/TD3_HalfCheetahBulletEnv-v0_0_actor.pth (torch, 533894 bytes, 6 tensors)

layer_1.weight f4 [400, 26]
0	0x3e2c000e	0.16796896
1	0x3dd775d9	0.105205245
2	0xbe9fb178	-0.31190085
3	0x3d925261	0.07144619
4	0xbd9ab216	-0.075534984
5	0xbd50a452	-0.050937958
6	0xbb7ea6f7	-0.0038856843
7	0x3ea6184f	0.3244042
8	0x3d3df460	0.046375632
9	0xbdb11cbd	-0.086480595
10	0xbeb59695	-0.35466447
11	0xbe5bb86b	-0.21457069
12	0xbe42b162	-0.19012979
13	0xbdb43ecc	-0.0880104
14	0xbf1b9e33	-0.6078827
15	0xbd3535b2	-0.04424066
16	0x3d9b5ca4	0.07586029
17	0x3df59fc0	0.119933605
18	0xbebc0f91	-0.36730626
19	0x3e98954f	0.29801413
20	0xbe7583a6	-0.23976001
21	0x3e71415f	0.23560093
22	0x3efb55cd	0.49088898
23	0x3d18d139	0.037308905
24	0x3e3f01ed	0.18653078
25	0xbeb0f916	-0.34565037
26	0x3eceb9a4	0.40376008
27	0xbe3a4c27	-0.18193112
28	0xbea4078a	-0.32037002
29	0xbea56ad4	-0.32308066
30	0xbd9c8fc0	-0.07644606
31	0x3f66d2af	0.9016523
32	0xbe022b59	-0.12711848
33	0xbeee77df	-0.4657583
34	0xbe0fad88	-0.1403104
35	0xbeddd026	-0.43322867
36	0x3d8af350	0.067846894
37	0x3e90ba34	0.28267062
38	0x3cec5053	0.028846895
39	0x3e63e99c	0.22257084
40	0x3db229f9	0.08699412
41	0xbe9f445f	-0.3110685
42	0x3e31e525	0.17372568
43	0xbc621646	-0.013799256
44	0x3b296677	0.0025848427
45	0xbcb3647e	-0.021898504
46	0x3e5ac7f8	0.21365345
47	0x3e2fa070	0.17151046
48	0xbe8c9412	-0.2745672
49	0x3d294adb	0.041331153
50	0x3ee9870b	0.45610842
51	0x3ed21b2a	0.4103635
52	0x3e822262	0.25416857
53	0x3cd909b6	0.026493888
54	0xbdc4706a	-0.09591754
55	0xbea874af	-0.32901523
56	0x3d15b049	0.03654507
57	0xbe0b5048	-0.13604844
58	0xbe0b3006	-0.13592538
59	0xbe3cc4ae	-0.18434402
60	0x3ed8d13f	0.42347142
61	0x3f06a016	0.5258802
62	0xbec21b0d	-0.37911263
63	0x3e0ff6a4	0.1405893
64	0x3e941227	0.289201
65	0xbe651d04	-0.2237435
66	0xbec6df22	-0.38842112
67	0x3e1a4bbc	0.15067953
68	0xbe2b813b	-0.16748516
69	0x3c83a7d5	0.01607124
70	0xbdc6ef2e	-0.09713589
71	0x3e1f8c4a	0.1558086
72	0xbe6873f9	-0.2270049
73	0x3e678aa7	0.22611485
74	0x3f07c0be	0.53028476
75	0x3e637bef	0.22215246
76	0x3ee0f3c4	0.43935978
77	0x3be36f0f	0.0069407295
78	0x3c8128df	0.01576656
79	0xbdfb4594	-0.1226913
80	0xbe8cc8bc	-0.27496898
81	0x3e2380e8	0.15967143
82	0x3e18b29a	0.14911881
83	0xbedb8742	-0.4287663
84	0x3d165a90	0.03670746
85	0x3e149162	0.14508584
86	0xbd76a6bc	-0.060217604
87	0x3ce2a281	0.027665379
88	0x3e0eb532	0.13936308
89	0xbe654b17	-0.22391926
90	0xbe597b8b	-0.21238534
91	0xbe118d15	-0.14213975
92	0x3e3721db	0.17884009
93	0x3ecd2506	0.4006731
94	0xbeb567e4	-0.35430825
95	0xbe7636a4	-0.24044281
96	0xbe7cf5e0	-0.24703169
97	0x3e8f0952	0.27936798
98	0xbf1ddc3a	-0.61664164
99	0xbdd61fec	-0.10455307
100	0xbec3e719	-0.3826225
101	0x3e198051	0.14990355
102	0xbe83ac9d	-0.2571763
103	0xbe0c52dd	-0.13703485
104	0xbedc46fc	-0.43022907
105	0xbb6703ff	-0.0035250185
106	0xbe8ed666	-0.27897948
107	0xbe84038f	-0.25783965
108	0xbc310b52	-0.010805922
109	0xbedb7d9c	-0.4286927
110	0xbda47c73	-0.08031549
111	0x3ea7eaae	0.32796234
112	0xba94691c	-0.0011322829
113	0x3e96c01d	0.29443446
114	0x3ec91159	0.39271048
115	0xbda4f6b9	-0.08054871
116	0x3e9015bb	0.2814158
117	0xbdfdc488	-0.12391001
118	0x3d5006b1	0.05078763
119	0xbd87150b	-0.065958105
120	0x3e4dedac	0.20110196
121	0x3dea8260	0.11450648
122	0xbd11e577	-0.035619225
123	0x3dfece90	0.124417424
124	0xbdeaf203	-0.11471941
125	0xbd401e36	-0.04690381
126	0x3e7efd4f	0.24901317
127	0x3e1a7441	0.1508341
128	0x3d52a9bc	0.051431403
129	0xbece9bae	-0.4035315
130	0x3d8b4448	0.06800133
131	0x3d2bb572	0.041921087
132	0xbe5a9e15	-0.21349366
133	0xbd10f5b2	-0.035390563
134	0x3e0fc25f	0.1403899
135	0x3edcb49e	0.4310655
136	0x3bb29a20	0.005450502
137	0xbf68cb43	-0.9093515
138	0x3e2babb0	0.16764712
139	0xbda9ef80	-0.08297634
140	0x3ea22a0d	0.31672707
141	0x3e8e1c6e	0.27756065
142	0x3eaa6359	0.3327892
143	0x3e085a5f	0.13315724
144	0xbf06a2b1	-0.52592
145	0xbe81aa3b	-0.25325188
146	0x3e05002b	0.12988345
147	0x3e40c5ba	0.18825427
148	0xbc3a1f0d	-0.011359942
149	0x3e0e3968	0.13889086
150	0xbf0894dd	-0.5335215
151	0x3e551893	0.20810156
152	0xbc860cbc	-0.016363494
153	0xbd0c8588	-0.034307033
154	0x3f1ea26d	0.6196659
155	0xbd0709ab	-0.032968204
156	0x3db731d6	0.08945052
157	0xbe1d2555	-0.15346272
158	0xbe6a12af	-0.2285869
159	0xbec6ec11	-0.3885198
160	0xbd1ab9eb	-0.03777496
161	0xbed07247	-0.40712187
162	0xbe34355c	-0.1759848
163	0x3e93a5bc	0.28837383
164	0x3d8e19db	0.06938525
165	0x3e72356d	0.23653193
166	0xbd069183	-0.032853615
167	0xbe817cc2	-0.25290495
168	0xbee3c452	-0.44485718
169	0x3db512d4	0.08841482
170	0x3e5cf826	0.21579036
171	0xbdfa9a76	-0.12236492
172	0x3ef8168e	0.48454708
173	0x3e6eb6a6	0.23311862
174	0xbe02a0bf	-0.12756632
175	0xbdf434b6	-0.11924116
176	0x3e8a54f3	0.27017936
177	0x3d860cf3	0.065454386
178	0x3f085c05	0.5326541
179	0xbed49bf8	-0.41525245
180	0xbce29c02	-0.027662281
181	0xbdbbde74	-0.09173289
182	0xbd7eb07a	-0.06218002
183	0x3d603c07	0.054744747
184	0x3e4f2766	0.20229873
185	0xbf2830d2	-0.65699494
186	0xbd412bdc	-0.04716097
187	0xbe9ebc00	-0.31002808
188	0xbe257e94	-0.16161567
189	0x3f030b55	0.51189166
190	0x3e7d458c	0.24733561
191	0xbe242de7	-0.16033135
192	0xbea2651c	-0.31717765
193	0x3e7f6052	0.24939087
194	0xbe08c9e5	-0.13358267
195	0xbce9d6eb	-0.028544864
196	0xbea5cdde	-0.32383627
197	0x3e55c6b2	0.20876577
198	0x3c25da75	0.010122885
199	0x3e4eec28	0.20207274
200	0xbebc8417	-0.36819527
201	0xbe9f8891	-0.3115888
202	0xbe30a6a5	-0.1725107
203	0xbe8a9a80	-0.27071
204	0x3e78d5e4	0.24300343
205	0x3e1cd6d1	0.15316321
206	0xbf3628fc	-0.7115629
207	0xbc0bd2e4	-0.008534167
208	0x3e428b56	0.18998465
209	0x3ccb6f6d	0.024833405
210	0xbe0a6fcd	-0.13519211
211	0x3df34060	0.11877513
212	0x3cc99278	0.024605975
213	0xbe282723	-0.1642118
214	0xbab49de9	-0.0013779971
215	0xbf008196	-0.5019773
216	0xbe897671	-0.26848176
217	0xbee1010d	-0.43946114
218	0x3eb83cf2	0.35983998
219	0x3e54b4a5	0.20772035
220	0x3ea97068	0.33093572
221	0x3e1fb763	0.155973
222	0x3e2ed1d0	0.17072225
223	0xbe982b25	-0.29720417
224	0xbe4dd1e8	-0.20099604
225	0x3e78c353	0.2429326
226	0xbe301bc2	-0.17198089
227	0xbd826d8a	-0.06368549
228	0xbf9266be	-1.1437604
229	0xbe8c6844	-0.27423298
230	0xbe1d036a	-0.15333334
231	0x3e5e50b7	0.21710478
232	0xbc0a088a	-0.008424887
233	0xbe8706d6	-0.26372403
234	0x3da10c75	0.07863704
235	0xbdfded15	-0.123987354
236	0x3e0330e9	0.12811626
237	0xbd82adaf	-0.06380784
238	0xbdaa3a45	-0.08311895
239	0x3d7d874b	0.061896604
240	0x3d849ecb	0.064756
241	0x3e400566	0.1875206
242	0x3eb9be67	0.36278078
243	0xbb3f7bb0	-0.002921801
244	0xbe6c6435	-0.23085101
245	0xbedf8b93	-0.43661174
246	0x3e8575c6	0.26066417
247	0xbeb1330d	-0.3460926
248	0xbe1c2a54	-0.15250522
249	0xbd0c7554	-0.03429158
250	0xbe29a6c4	-0.16567522
251	0x3ea09c09	0.31369045
252	0x3f12fc4e	0.57416236
253	0xbe247daa	-0.16063562
254	0x3d8f75d8	0.07004899
255	0xbe897fbc	-0.26855266

layer_1.bias f4 [400]
0	0xbeb077df	-0.34466454
1	0xbe9ab3ed	-0.30215397
2	0xbe845f1d	-0.25853816
3	0x3d957b5d	0.0729892
4	0xbe2ee67a	-0.17080107
5	0xbe78cc42	-0.24296668
6	0xbeb969ad	-0.36213437
7	0x3de4d525	0.111734666
8	0xbdf3e651	-0.11909164
9	0x3db3f222	0.087864175
10	0xbeaba2e5	-0.33522716
11	0xbd814c9e	-0.06313442
12	0xbeb36303	-0.35036477
13	0xbe01c6fe	-0.12673566
14	0xbe464f8e	-0.19366285
15	0xbea85d05	-0.32883468
16	0xbd338a24	-0.043832913
17	0xbdb2303a	-0.08700605
18	0xbdf606ad	-0.12012992
19	0xbd69ca84	-0.0570779
20	0xbe2b9af2	-0.16758326
21	0x3d03db9c	0.032191858
22	0x3e36c297	0.17847668
23	0xbd5c0dca	-0.053724088
24	0x3d9228cf	0.0713669
25	0xbe96dda1	-0.29465964
26	0xbe626c86	-0.22111711
27	0xbe519e89	-0.20470633
28	0xbe02438d	-0.12721081
29	0xbe8b2b9e	-0.27181715
30	0x3dc39aec	0.095510334
31	0xbec136b4	-0.37737048
32	0xbe2bfb6f	-0.16795133
33	0x3d9ce462	0.07660748
34	0xbe13d5ab	-0.14436977
35	0xbdc4583b	-0.09587141
36	0x3de6e1f4	0.11273566
37	0xbe43a42a	-0.19105592
38	0xbe304b8a	-0.17216316
39	0x3d0f7aac	0.0350291
40	0xbef9b193	-0.4876829
41	0x3dc12076	0.094300196
42	0x3d907990	0.07054436
43	0xbd868428	-0.065681756
44	0xbe221b76	-0.15830788
45	0xbe4e666c	-0.20156258
46	0xbd844531	-0.0645851
47	0xbe06b4dc	-0.1315493
48	0xbe82ffe0	-0.25585842
49	0xbd21a177	-0.039460625
50	0x3d9a9578	0.0754804
51	0x3d65ceaa	0.056105293
52	0xbc64a6ac	-0.013955753
53	0x3e4f713f	0.20258044
54	0xbd1491ea	-0.036271967
55	0xbe7650b4	-0.24054223
56	0xbee173b1	-0.44033578
57	0x3d44ceaf	0.04804867
58	0xbcba116f	-0.022713391
59	0x3e5c80d0	0.21533513
60	0xbe7ce196	-0.24695429
61	0x3d52516d	0.051347185
62	0xbe9be180	-0.3044548
63	0xbc336d32	-0.010951327
64	0xbdd218d5	-0.102586426
65	0xbe863530	-0.26212454
66	0xbef661c3	-0.4812146
67	0x3e1a538b	0.15070932
68	0xbe8641c2	-0.26222044
69	0xbdede2b4	-0.11615506
70	0xbddbf235	-0.10739557
71	0xbd4035cb	-0.0469263
72	0xbd0f5f71	-0.03500313
73	0xbe9c5f36	-0.3054139
74	0xbe246b47	-0.16056548
75	0xbe6502f7	-0.22364412
76	0xbe4aef3d	-0.19817825
77	0xbb841597	-0.004030894
78	0xbdfea132	-0.12433089
79	0x3dd16869	0.10224993
80	0xbe049b44	-0.12949854
81	0xbe2bf3a6	-0.16792163
82	0xbe3655a2	-0.17806104
83	0xbdcd3a68	-0.10020906
84	0xbbd9fb5a	-0.006652278
85	0xbddd3fc6	-0.108031794
86	0xbe0f8de8	-0.14018977
87	0xbe127a2b	-0.14304416
88	0x3d5c1e6c	0.05373995
89	0xbe266ffc	-0.16253656
90	0x3d8097db	0.06278964
91	0x3da53d87	0.08068376
92	0xbd9ef3b6	-0.07761328
93	0xbbad4df6	-0.0052888347
94	0xbe383c1f	-0.17991684
95	0xbcb15138	-0.021645173
96	0xbe121caf	-0.14268754
97	0x3d94242b	0.07233461
98	0xbe5f3d70	-0.2180078
99	0xbed189e0	-0.40925503
100	0x3eb85bbe	0.36007494
101	0xbe6563bb	-0.22401325
102	0xbd8323a4	-0.06403282
103	0x3db68f67	0.089140706
104	0x3d417f8f	0.04724079
105	0xbe627ab6	-0.22117123
106	0xbe8fc239	-0.28077868
107	0xbe80e26c	-0.25172746
108	0xbe128fac	-0.14312619
109	0x3e27d73e	0.16390702
110	0x3e024c07	0.12724315
111	0xbdddcdcd	-0.10830269
112	0xbea29273	-0.31752357
113	0xbe7cf025	-0.24700983
114	0xbd09341d	-0.033496965
115	0x3dbc5a4d	0.09196911
116	0xbe5f4238	-0.21802604
117	0xbe128084	-0.14306837
118	0xbdd739c8	-0.10509068
119	0xbe3c7992	-0.1840575
120	0xbd66a693	-0.0563112
121	0x3d10e9ad	0.0353791
122	0xbe1cf9e7	-0.15329705
123	0xbeedb215	-0.46424928
124	0xbe16bd7a	-0.14720717
125	0xbd4b7951	-0.049676243
126	0x3c0bba87	0.008528358
127	0xbe8a5e78	-0.270252
128	0xbe122b4f	-0.14274333
129	0xbdd418d0	-0.10356295
130	0x3d1cbbd4	0.038265064
131	0x3e30de15	0.17272218
132	0xba44ceec	-0.00075076404
133	0x3d46d582	0.04854346
134	0xbe59788e	-0.21237394
135	0xbe411541	-0.18855764
136	0xbe4f9405	-0.20271309
137	0xbe2980be	-0.16553017
138	0x3e0d745f	0.13813923
139	0x3ea15da7	0.31516764
140	0xbe843dd0	-0.2582841
141	0xbe1c1ebc	-0.15246099
142	0xbce42932	-0.027851675
143	0xbd446279	-0.047945473
144	0xbe239a43	-0.15976815
145	0xbdc567ec	-0.09638962
146	0xbe51bb69	-0.20481648
147	0xbe773a31	-0.24143292
148	0xbe9e3c1b	-0.30905232
149	0xbdfd3cc2	-0.12365104
150	0xbeb56af5	-0.35433164
151	0x3e7c524e	0.24640772
152	0xbe636564	-0.22206646
153	0x3d13ed2f	0.036114868
154	0xbe3f324a	-0.18671528
155	0xbe22cb5e	-0.15897891
156	0xbdf99726	-0.121870324
157	0xbe78223d	-0.24231811
158	0xbdab3d97	-0.08361357
159	0xbdb66f25	-0.08907918
160	0xbcbab510	-0.022791415
161	0xbed5e5c5	-0.41776863
162	0xbe144a47	-0.1448146
163	0xbe61ff61	-0.22070076
164	0xbe604ab2	-0.21903494
165	0x3cb0016e	0.021485057
166	0xbdd63f33	-0.10461273
167	0xbde46cb6	-0.111535475
168	0xbe39c699	-0.18142165
169	0xbeb9335c	-0.36171997
170	0xbdff6351	-0.12470115
171	0x3dbd5d4d	0.09246311
172	0x3bee9910	0.00728143
173	0x3dcae721	0.099073656
174	0x3ddc18ba	0.10746904
175	0xbe6e4f8f	-0.23272537
176	0x3d8fd908	0.07023817
177	0x3d61fc53	0.055172276
178	0xbe9a8c73	-0.3018528
179	0xbe34ba2f	-0.17649148
180	0x3da5f3e8	0.08103162
181	0xbe4dc37d	-0.20094104
182	0xbeb2af7c	-0.3489951
183	0xbe77e04d	-0.24206658
184	0xbe719227	-0.23590909
185	0x3cf2946a	0.029611785
186	0xbe3edda6	-0.1863924
187	0xbe058a7d	-0.1304111
188	0x3e363735	0.17794497
189	0x3c9f8eb0	0.019477218
190	0xbeaa1a49	-0.3322318
191	0xbeb1ee02	-0.34751898
192	0xbdc58afe	-0.09645651
193	0xbdbd1633	-0.0923275
194	0xbeeafcb7	-0.4589593
195	0xbd5d82a6	-0.054079674
196	0xbda74c1d	-0.08168814
197	0xbe56bdaf	-0.20970796
198	0x3c6375af	0.013883038
199	0x3d649716	0.05580815
200	0xbd9f8955	-0.07789866
201	0xbce7d340	-0.028298974
202	0xbeb83aef	-0.35982463
203	0xbead466a	-0.33842784
204	0xbd8c6e06	-0.06856923
205	0x3d48dd1d	0.049038995
206	0xbe980276	-0.29689378
207	0xbd4cf62b	-0.05003945
208	0xbdad4ef3	-0.08462324
209	0x3e78d1f7	0.24298845
210	0x3e024896	0.12723002
211	0xbb6e2055	-0.003633519
212	0xbdac94bc	-0.08426806
213	0x3b253702	0.002520979
214	0xbe5a1c87	-0.21299945
215	0xbe6b734a	-0.22993198
216	0x3b68c4f8	0.0035517793
217	0xbe24e649	-0.16103472
218	0xbdfe2fd6	-0.12411468
219	0xbbaf3fe8	-0.0053481944
220	0xbd0b3655	-0.033987362
221	0xbcad745b	-0.021173647
222	0x3db8f3ba	0.09030862
223	0xbda37304	-0.07980922
224	0xbe4f3fb9	-0.20239152
225	0xbdde5c2b	-0.108574234
226	0xbdcb6a23	-0.09932353
227	0xbeb5cb6d	-0.35506764
228	0x3d66458b	0.056218665
229	0xbd8fd511	-0.07023061
230	0xbdf35571	-0.11881531
231	0xbe14caea	-0.1453053
232	0xbd88a3e5	-0.066718854
233	0xbe43bf00	-0.1911583
234	0x3dc521c4	0.09625581
235	0xbe3b4af2	-0.18290308
236	0x3d659492	0.05604989
237	0xbead8ed1	-0.33898023
238	0xbd12f682	-0.03587962
239	0xbe4817ff	-0.19540404
240	0xbdf09ac2	-0.11748268
241	0x3d99eccf	0.07515871
242	0x3e17d55e	0.14827487
243	0xbe530b58	-0.20609796
244	0xbdfcd4eb	-0.123452984
245	0xbc5fbffd	-0.013656613
246	0xbe4b143f	-0.19831942
247	0xbd0fda09	-0.035120044
248	0xbea2c111	-0.31787923
249	0xbc8d198f	-0.017224101
250	0xbe098f46	-0.1343356
251	0x3cadd2f8	0.021218762
252	0x3c8beee8	0.017081693
253	0xbd0a0c6f	-0.033703264
254	0xbe140ad2	-0.14457253
255	0xbe1960b8	-0.14978302

layer_2.weight f4 [300, 400]
0	0xbe750618	-0.23928106
1	0xbea9e3b2	-0.3318153
2	0x3dfb0048	0.12255913
3	0xbef9e888	-0.4881022
4	0x3e86b1cc	0.26307523
5	0xbe35b272	-0.17743853
6	0xbdd4bd87	-0.10387712
7	0xbf37f056	-0.718511
8	0x3e462ad8	0.19352281
9	0x3d34b00d	0.044113208
10	0xbef286ca	-0.4736846
11	0xbe8872a4	-0.26649964
12	0xbd9963bc	-0.07489726
13	0xbd48a2ec	-0.0489835
14	0x3e31f48a	0.1737844
15	0x3e88bc9f	0.26706406
16	0xbf02e0eb	-0.5112445
17	0xbdd3c098	-0.10339469
18	0xbe399e0a	-0.18126693
19	0x3d9b1405	0.07572178
20	0xbde9b806	-0.11412053
21	0xbe5e5359	-0.21711482
22	0xbc6517af	-0.013982697
23	0xbdfd15ae	-0.12357651
24	0xbe096bd5	-0.13420041
25	0xbe2b7564	-0.16744
26	0x3cc48426	0.023988795
27	0x3d951582	0.07279493
28	0x3e9c2707	0.30498526
29	0x3e763747	0.24044524
30	0xbe9862ca	-0.2976287
31	0x3d1a3359	0.037646625
32	0xbed2886a	-0.411197
33	0xbea36dfd	-0.31919852
34	0xbec8b6b5	-0.39201894
35	0xbefabc06	-0.48971575
36	0xbc1ea7cc	-0.009683561
37	0xbe699c99	-0.22813644
38	0x3e9cf53f	0.30655858
39	0xbd153306	-0.036425613
40	0xbe25228f	-0.16126464
41	0xbf1988fb	-0.5997464
42	0xbe10263a	-0.14077082
43	0x3e1b2715	0.15151627
44	0x3caf2304	0.021379001
45	0x3e7265ed	0.23671694
46	0xbeda7c58	-0.42672992
47	0xbf046e4c	-0.517308
48	0xbed7147c	-0.42007816
49	0xbe2fc4e3	-0.1716495
50	0xbe299ed7	-0.16564499
51	0xbd30fabd	-0.043207873
52	0xbeb5818f	-0.35450408
53	0xbe8b7821	-0.2724009
54	0xbd6c444d	-0.057682324
55	0xbe0f8350	-0.14014935
56	0xbe0ed502	-0.13948444
57	0xbe9b7b88	-0.30367684
58	0xbe322390	-0.17396379
59	0xbe48385c	-0.1955275
60	0x3dfa10f0	0.12210262
61	0xbebc790f	-0.3681111
62	0xbe21d21e	-0.1580281
63	0xbe20966d	-0.15682383
64	0x3ca1e642	0.019763116
65	0x3d0738f1	0.033013288
66	0x3f0ae014	0.54248166
67	0xbe5afa4d	-0.21384545
68	0xbcb1d15d	-0.021706278
69	0xbd711f5c	-0.058867797
70	0x3e59a631	0.21254803
71	0xbe5f89f9	-0.21829976
72	0x3e038f12	0.12847546
73	0xbe0b5cd2	-0.13609627
74	0x3e0a00fe	0.13476941
75	0xbe959fd0	-0.2922349
76	0xbe027fbf	-0.12744044
77	0xbe759e04	-0.2398606
78	0xbef6b727	-0.4818661
79	0xbe8b8a00	-0.27253723
80	0xbe9badb3	-0.3040596
81	0xbc4c50a6	-0.0124704
82	0xbe07fb36	-0.13279423
83	0xbe9df1a1	-0.3084841
84	0x3d8709f3	0.065936945
85	0x3e8eadce	0.27866977
86	0xbd4c4ba1	-0.049876813
87	0xbe68de4a	-0.22741047
88	0xbe17440e	-0.14772055
89	0x3e118d24	0.14213997
90	0xbe15b305	-0.14619072
91	0x3e036bfc	0.12834162
92	0x3e304a5b	0.17215864
93	0xbdfdd55d	-0.123942114
94	0xbe51e330	-0.20496821
95	0x3d96b563	0.073588155
96	0xbe8c1eff	-0.27367398
97	0xbe91d010	-0.28479052
98	0x3ddc7087	0.107636504
99	0xbec052fe	-0.37563318
100	0xbe6ef2d2	-0.23334816
101	0xbe874f4a	-0.2642768
102	0x3dc8d84b	0.098068796
103	0x3ce0ff67	0.027465535
104	0xbea28af3	-0.31746635
105	0xbe908b60	-0.28231335
106	0xbe6fde68	-0.23424685
107	0xbf1c8b83	-0.6115038
108	0xbf3ced34	-0.73799443
109	0xbc22fee6	-0.009948468
110	0xbe961412	-0.29312187
111	0x3e110212	0.14160946
112	0xbeceb1f6	-0.40370148
113	0x3e138b16	0.14408526
114	0xbe9db61a	-0.30802995
115	0x3eb12ae9	0.3460305
116	0xbe6a22e6	-0.22864875
117	0xbef99573	-0.48746833
118	0xbe73033c	-0.23731703
119	0xbe880f4a	-0.26574165
120	0xbe3bdefb	-0.18346779
121	0xbe656bea	-0.22404447
122	0x3d9d373e	0.07676552
123	0x3e54dd7d	0.20787616
124	0x3e2c24ab	0.16810863
125	0x3e841b01	0.25801852
126	0x3e98bd32	0.29831845
127	0x3d9b49a8	0.07582408
128	0xbd7f59b9	-0.062341426
129	0xbdd47539	-0.10373921
130	0x3e4b06ed	0.1982686
131	0xbd60af95	-0.054854948
132	0xbe5ca5e9	-0.21547665
133	0x3c0248af	0.007951899
134	0xbe357520	-0.17720461
135	0xbd83dc2b	-0.06438478
136	0x3db46acf	0.088094346
137	0xbd444f98	-0.04792747
138	0xbed00e61	-0.4063597
139	0xbead75a0	-0.33878803
140	0x3eaa4e0d	0.33262673
141	0x3db2a21c	0.08722326
142	0xbe99c0f2	-0.30030018
143	0xbdf99de5	-0.12188319
144	0x3eb35368	0.3502457
145	0xbed87ace	-0.42281193
146	0x3dc3c9d7	0.09559982
147	0xbe56bf25	-0.20971353
148	0xbea50586	-0.32230777
149	0xbd2f52fc	-0.04280375
150	0xbeb45a0a	-0.35224944
151	0xbf35aee4	-0.70969987
152	0x3be45e28	0.006969232
153	0x3ec5d08f	0.3863568
154	0x3dcaa4be	0.09894703
155	0xbea8f114	-0.32996428
156	0x3e791aff	0.24326704
157	0xbe7df150	-0.24799085
158	0x3e3cf852	0.18454102
159	0x3d0e54ea	0.03474895
160	0x3d3c59ec	0.045984194
161	0xbe9ec2af	-0.31007907
162	0xbe319abd	-0.17344184
163	0xbf3c36f0	-0.7352133
164	0xbe55701a	-0.20843545
165	0xbeeb7f3a	-0.45995504
166	0xbe18adc4	-0.14910036
167	0xbe868963	-0.26276693
168	0x3eea82fe	0.45803064
169	0x3ede06cc	0.4336456
170	0xbe97524f	-0.29554984
171	0xbe977243	-0.29579362
172	0x3cac6608	0.021044746
173	0xbe32b186	-0.17450532
174	0xbda0cf2a	-0.078520134
175	0xbe343b81	-0.17600824
176	0xbe47e1e3	-0.19519763
177	0xbf034d3d	-0.5128973
178	0x3e70fb57	0.23533379
179	0xbdddad30	-0.108240485
180	0xbe879951	-0.2648416
181	0x3f0a8be7	0.54119724
182	0xbdc6eadb	-0.09712764
183	0x3dff240b	0.124580465
184	0x3d05439b	0.032535177
185	0x3e175919	0.14780082
186	0xbe5aea1d	-0.2137837
187	0x3de00065	0.10937575
188	0xbede7fb9	-0.4345682
189	0x3da16516	0.07880609
190	0x3e10f07b	0.14154236
191	0xbe14db4b	-0.14536779
192	0xbe5bc69b	-0.2146248
193	0xbebab90c	-0.36469305
194	0x3c06640f	0.008202567
195	0x3dfbeb68	0.123007596
196	0xbde8204f	-0.113342874
197	0xbdce44d6	-0.10071723
198	0xbe76bb8f	-0.24094985
199	0xbdc7ad64	-0.097498685
200	0x3cd652ca	0.026162524
201	0x3ef552a3	0.4791461
202	0x3e5066a5	0.20351656
203	0x3ea97272	0.33095127
204	0xbbeb9e1c	-0.007190479
205	0x3dcec421	0.10096002
206	0xbdb06dbf	-0.086146824
207	0xbcc69f22	-0.024245802
208	0xbeef6068	-0.4675324
209	0xbe9f3d5c	-0.311015
210	0xbeee1fba	-0.4650858
211	0xbf326a10	-0.6969309
212	0xbdccf275	-0.100071825
213	0x3cda7ba9	0.026670294
214	0xbd243049	-0.04008511
215	0x3e7bde46	0.2459651
216	0xbe2d943b	-0.16951077
217	0xbd18406f	-0.037170824
218	0x3e79b18e	0.24384138
219	0x3e67b6a3	0.22628264
220	0x3e33a1bb	0.17542164
221	0xbd8902cd	-0.06689987
222	0x3d1a36e6	0.03765001
223	0xbde968e5	-0.1139696
224	0x3e873337	0.2640626
225	0xbeb34576	-0.35013932
226	0xba89c536	-0.0010511044
227	0xbe3db955	-0.1852773
228	0xbc3fc8ee	-0.01170562
229	0xbe1cbc93	-0.1530631
230	0x3d82e727	0.06391745
231	0xbe908b0c	-0.28231084
232	0xbec8e58f	-0.3923764
233	0x3dcd61ec	0.10028443
234	0xbddc91e9	-0.10770018
235	0xbd9d5de3	-0.07683923
236	0xbddfed6c	-0.109339565
237	0xbe746efb	-0.2387046
238	0xbe8dd093	-0.27698192
239	0xbe4b715d	-0.19867463
240	0x3d6d8827	0.057991173
241	0xbe2eaf62	-0.1705909
242	0x3d8018b3	0.06254711
243	0x3e1664fe	0.14686963
244	0xbdbf2562	-0.09333302
245	0xbf098b1d	-0.53727895
246	0xbe9f9d8f	-0.31174895
247	0xbebd0e2d	-0.36924878
248	0xbe062487	-0.13099872
249	0xbc980fbd	-0.018562192
250	0x3cf3522e	0.029702272
251	0x3d8baff2	0.06820668
252	0xbec73cc5	-0.3891355
253	0x3eeb8723	0.4600154
254	0xbd9bae4b	-0.07601603
255	0xbe556d56	-0.2084249

layer_2.bias f4 [300]
0	0xbe0b6a36	-0.13614735
1	0xbd3dd970	-0.046349943
2	0xbdb63618	-0.08897036
3	0x3c8f13c2	0.017465476
4	0xbd9a3ded	-0.07531343
5	0xbd352e5f	-0.044233676
6	0xbda8a33f	-0.08234262
7	0xbd680c70	-0.056652486
8	0xbcb58f1b	-0.022162965
9	0xbd736a33	-0.05942745
10	0xbe21bbec	-0.15794343
11	0xbd0833b8	-0.033252448
12	0xbe3b52a8	-0.1829325
13	0xbd5e1df4	-0.054227784
14	0xbd745378	-0.059649915
15	0xbde4231c	-0.11139509
16	0xbd2625fb	-0.040563565
17	0xbda1c180	-0.07898235
18	0xbd7c347d	-0.061573494
19	0xbd9a5a68	-0.07536775
20	0x3bc45eb3	0.0059927343
21	0xbce9fc36	-0.028562646
22	0xbd5d18b3	-0.053978633
23	0x3d9f4e29	0.0777858
24	0xbceb0554	-0.028689064
25	0xbce20b3d	-0.02759325
26	0xbdc89e72	-0.09795846
27	0xbe499661	-0.19686271
28	0xbde80e8e	-0.11330901
29	0xbd2e01fe	-0.04248237
30	0xbd8c2b4c	-0.06844196
31	0x3c82fe52	0.01599041
32	0xbd87006a	-0.06591876
33	0xbe0edd35	-0.13951571
34	0xbd908f18	-0.07058543
35	0xbd8f9564	-0.07010916
36	0xbc861b3d	-0.01637041
37	0xbe05b160	-0.13055944
38	0xbd1cee41	-0.038313154
39	0xbd9c7ad5	-0.07640616
40	0xbe88b6ec	-0.26702058
41	0xbdfc39c5	-0.12315706
42	0xbe539e8e	-0.20665953
43	0x3ca9e07a	0.020736922
44	0xbdb8608d	-0.090027906
45	0xbd89a2cc	-0.06720504
46	0xbd5bd91f	-0.05367386
47	0xbd1cf0fd	-0.03831576
48	0xbe78e9c9	-0.24307932
49	0x3c70f1d0	0.01470609
50	0xbdba22d8	-0.09088677
51	0x3e3fb5de	0.1872172
52	0xbca7f101	-0.020500662
53	0x3b88e288	0.0041773953
54	0xbdadacff	-0.08480262
55	0x3df8a3c0	0.12140608
56	0xbda38271	-0.07983864
57	0xbd4107f8	-0.04712674
58	0xbe202964	-0.1564079
59	0xbd8e017d	-0.069338776
60	0x3e2bb93a	0.16769877
61	0xbdb3a877	-0.087723665
62	0xbdccf9ed	-0.10008607
63	0xbbb38910	-0.0054789856
64	0x3cef6a60	0.029225528
65	0x3a440bcc	0.00074785645
66	0xbd72fa7c	-0.05932091
67	0xbdb7d905	-0.0897694
68	0xbe3a757e	-0.18208882
69	0x3caef743	0.021358138
70	0xbe4f2a74	-0.20231038
71	0xbc56225d	-0.013069716
72	0xbcdc0bc4	-0.026861079
73	0xbcd9a260	-0.026566684
74	0xbd66f6a1	-0.056387547
75	0x3a73f3df	0.0009306054
76	0xbd678866	-0.056526564
77	0xbd717fd0	-0.058959782
78	0xbc657674	-0.014005292
79	0xbda0d2ec	-0.0785273
80	0xbd031dae	-0.032010727
81	0x3da5b658	0.0809142
82	0xbc7128c9	-0.014719197
83	0xbe080801	-0.13284303
84	0xbb9e2eab	-0.0048273406
85	0xbcf3671a	-0.029712249
86	0xbe264e61	-0.16240837
87	0xbdb3e8de	-0.0878465
88	0xbdc08ae7	-0.094014935
89	0x3c7ec58f	0.015550031
90	0xbc98a87a	-0.018635023
91	0xbde80526	-0.11329107
92	0xbda576a4	-0.080792695
93	0xbe08e0aa	-0.13366953
94	0x3ba515ed	0.005038014
95	0xbccf407c	-0.025299303
96	0xbd84144b	-0.06449183
97	0xbd9f8b4b	-0.0779024
98	0x3d0f9830	0.035057247
99	0xbd6b6504	-0.057469383
100	0xbd22bffb	-0.039733868
101	0xbd3c05db	-0.04590402
102	0xbda0e1be	-0.07855557
103	0xbe206a99	-0.15665664
104	0xbc98187a	-0.018566359
105	0xbc92c53c	-0.017916314
106	0xbd6bad27	-0.057538178
107	0xbe49f1e8	-0.19721186
108	0xbe169f2d	-0.14709158
109	0x3e88a188	0.2668574
110	0x3c2feaf7	0.010737172
111	0xbd2dc63b	-0.042425375
112	0xbd7a9c29	-0.061184082
113	0xbe36e646	-0.1786128
114	0xbe1ebf9f	-0.15502785
115	0x3e1f725d	0.1557097
116	0xbd8b2ea9	-0.06796009
117	0xbc65ee03	-0.014033797
118	0xbe43c576	-0.19118294
119	0xbe25b700	-0.1618309
120	0xbc50a8f7	-0.012735597
121	0xbcd57a86	-0.0260594
122	0xbd05f738	-0.03270647
123	0xbc5db374	-0.0135315545
124	0xbe268dbf	-0.1626501
125	0xbd9ba5bd	-0.075999714
126	0x3e46abef	0.19401525
127	0xbe90bbb4	-0.28268206
128	0xbe4cbd5f	-0.19994114
129	0xbd1a00a7	-0.03759828
130	0xbc0059c9	-0.007833906
131	0xbdf891fc	-0.12137219
132	0xbe31b4e0	-0.17354155
133	0x3d3383d5	0.043826897
134	0xbc423642	-0.011853756
135	0xbc8cebc6	-0.01720227
136	0xbd9fee85	-0.07809166
137	0xbd5b7b4b	-0.05358438
138	0xbd693d33	-0.05694313
139	0xbdc58b51	-0.09645713
140	0x3dc97dea	0.09838469
141	0xbba419af	-0.0050079445
142	0xbe34193f	-0.17587756
143	0x3ccabed2	0.024749193
144	0xbd4eb0cd	-0.05046158
145	0xbbee57a6	-0.007273632
146	0xbccfa095	-0.025345126
147	0x3c8cb26e	0.017174926
148	0xbc99de1f	-0.018782673
149	0xbd1ec045	-0.03875758
150	0xbd32b17e	-0.0436263
151	0xbe2c743f	-0.1684122
152	0xbcc974bc	-0.024591796
153	0xbd15e51e	-0.036595456
154	0xbccbb90b	-0.024868509
155	0xbe552eab	-0.20818584
156	0xbd97f47c	-0.074196786
157	0xbe98665b	-0.2976559
158	0xbcb14753	-0.021640455
159	0xbadf15a7	-0.0017020003
160	0x3df59665	0.11991576
161	0xbe299727	-0.16561566
162	0x3be6c557	0.0070425677
163	0xbd899d68	-0.06719476
164	0x3ce1c6d9	0.027560638
165	0x3dff8888	0.12477213
166	0xbd4482e0	-0.047976375
167	0x3afa070f	0.001907559
168	0xbc72bc9d	-0.014815477
169	0xbbd40550	-0.00647036
170	0xbd83833e	-0.06421517
171	0xbda7c9c0	-0.08192778
172	0xbb98604d	-0.004650152
173	0xbd5e2b41	-0.05424047
174	0x3db2e053	0.08734193
175	0xbd4a4a9e	-0.049387567
176	0xbe3df882	-0.1855183
177	0xbd502af2	-0.050822206
178	0xbe19db6d	-0.1502511
179	0xbda36ff5	-0.079803385
180	0xbe0428f9	-0.12906255
181	0xbdcc3bd4	-0.09972349
182	0xbbdff687	-0.0068348083
183	0x3bb7e589	0.0056120795
184	0xbdfd7cc3	-0.12377312
185	0x3d544fb9	0.051833842
186	0x3d18daa0	0.037317872
187	0xbb23150a	-0.0024884366
188	0xbd4e4181	-0.05035544
189	0xbd2f221d	-0.042757142
190	0xbe82cffe	-0.2554931
191	0xbdd754e5	-0.10514239
192	0x3dba87b7	0.09107917
193	0xbc39fad2	-0.011351304
194	0xbd22671c	-0.039649114
195	0xbc760ab2	-0.015017198
196	0x3d617575	0.055043656
197	0xbd4f2682	-0.050573833
198	0xbd3b289f	-0.045693036
199	0xbc9a7458	-0.018854305
200	0x3b791b3f	0.0038010625
201	0xbdd7cc31	-0.10536993
202	0xbe3e0379	-0.18556012
203	0xbe2b1041	-0.16705419
204	0xbd9bf9b1	-0.07615984
205	0x3d00b4ce	0.03142243
206	0xbe12fd8e	-0.14354536
207	0xbd48cdca	-0.04902438
208	0xbe28e550	-0.16493726
209	0xbe726f3d	-0.23675247
210	0xbd91241f	-0.07086968
211	0xbc4f587b	-0.012655373
212	0xbe342949	-0.17593874
213	0xbd350498	-0.044193834
214	0x3c102518	0.008797906
215	0x3dcc4a77	0.099751405
216	0xbd0b8268	-0.034059912
217	0xbd9e9a94	-0.07744327
218	0xbc2cdd0c	-0.010550749
219	0xbd32cb96	-0.043651186
220	0xbdbae18c	-0.09125051
221	0xbd6cc053	-0.057800602
222	0xbc6be98c	-0.014398944
223	0xbd168f8e	-0.036758
224	0xbd9186ef	-0.07105815
225	0xbddc4682	-0.10755636
226	0x3da00b74	0.078146845
227	0x3c662807	0.014047629
228	0xbdb2a1a3	-0.08722236
229	0xbd871bd3	-0.06597104
230	0x3dad0a7a	0.08449264
231	0xbd8019ce	-0.06254922
232	0x3d98a8be	0.0745406
233	0x3c5d9522	0.013524326
234	0xbcf94831	-0.030429931
235	0xbe3acbfc	-0.18241876
236	0xbc341338	-0.01099091
237	0xbce310f7	-0.02771805
238	0xbc25d784	-0.010122184
239	0x3ce24a75	0.027623395
240	0xbd9ea5c9	-0.07746465
241	0x3dea2003	0.11431887
242	0xbcf9dd06	-0.0305009
243	0x3d6c926c	0.057756826
244	0xbddab255	-0.106785454
245	0x3d3f9c3e	0.046779864
246	0xbd5c74b0	-0.05382222
247	0xbd4eb623	-0.050466668
248	0xbdeae0d2	-0.11468662
249	0xbd56a0ae	-0.05239933
250	0x3acd1954	0.0015647807
251	0x3e7ae414	0.24501067
252	0xbe3ccabe	-0.18436715
253	0xbc8ec992	-0.0174301
254	0x3d53ddc4	0.051725164
255	0xbdca7dd0	-0.09887278

layer_3.weight f4 [6, 300]
0	0xbec91f24	-0.3928157
1	0x3e1a5133	0.15070038
2	0xbc8c5047	-0.017128123
3	0x3e9a9aee	0.30196327
4	0x3d00bd57	0.03143057
5	0x3dbd8ea1	0.0925572
6	0x3d178845	0.03699519
7	0x3e7bbad2	0.24582985
8	0xbdfa951e	-0.12235473
9	0x3fa45e67	1.2841309
10	0xbe6be1b0	-0.23035312
11	0x3e9fc030	0.31201315
12	0x3dbf1070	0.09329307
13	0xbcc07f9f	-0.023498354
14	0xbedee964	-0.43537438
15	0xbdda8d37	-0.10671466
16	0xbd27c9c9	-0.04096392
17	0xbe8b763b	-0.2723864
18	0xbc9fa562	-0.01948804
19	0xbe3a2dba	-0.18181506
20	0x3d26c1c6	0.04071214
21	0xbbaaf67a	-0.0052173706
22	0x3d115930	0.035485446
23	0xbeb0d38f	-0.34536406
24	0xbcf91425	-0.030405113
25	0xbb3c13c9	-0.0028698316
26	0x3dc0010a	0.09375198
27	0x3cf46871	0.029834958
28	0xbee5fd1b	-0.44919667
29	0xbcd7374f	-0.02627149
30	0xbd58cad0	-0.052927792
31	0xbd87774a	-0.066145495
32	0x3c40056f	0.0117200455
33	0x3dab1397	0.08353346
34	0xbe27073b	-0.16311352
35	0x3d4221f6	0.04739567
36	0xbe56053a	-0.20900431
37	0x3e6cd68b	0.23128717
38	0xbb9398f2	-0.0045043165
39	0xbd30b671	-0.04314274
40	0xbebc7aca	-0.3681243
41	0xbe4bfade	-0.19919917
42	0x3ecf6f18	0.40514445
43	0xbd1e1e88	-0.038603336
44	0xbba072c4	-0.0048964936
45	0x3d399fca	0.045318402
46	0xbc1979bf	-0.009367405
47	0xbf1c3f72	-0.6103431
48	0xbe2dba2c	-0.1696555
49	0xbd13ec98	-0.036114305
50	0xbc44d9a3	-0.012014779
51	0x3e0feb2b	0.14054553
52	0x3e656ea3	0.22405486
53	0x3cac6802	0.021045689
54	0x3e925e32	0.2858749
55	0xbeb3a25d	-0.3508481
56	0xbeb11b35	-0.3459107
57	0x3cacdf2a	0.021102507
58	0x3eaff658	0.34367633
59	0x3998ea53	0.00029166284
60	0xbd80c243	-0.062870525
61	0x3f3d5b9f	0.7396793
62	0xbc5a8efa	-0.013339752
63	0x3c8dd3de	0.01731294
64	0x3ecfb6f3	0.40569267
65	0xbaf03c22	-0.0018328468
66	0x3d1d9ab5	0.03847762
67	0x3d13bdfc	0.036069855
68	0xbe8d7a4a	-0.27632362
69	0x3eb01064	0.34387505
70	0xbc186985	-0.009302502
71	0xbd06a9d6	-0.032876812
72	0xbeff74c5	-0.49893776
73	0x3daeeef0	0.085416675
74	0x3cdfa1f5	0.027298907
75	0x3ea72d52	0.32651764
76	0x3cce239d	0.025163466
77	0x3d96dc7c	0.07366273
78	0x3d04c567	0.03241482
79	0x3cc7d055	0.024391333
80	0x3d5d70c7	0.05406263
81	0xbea092ca	-0.3136199
82	0x3ea7a997	0.32746574
83	0xbf632903	-0.88734454
84	0x3c994ea9	0.018714266
85	0xbc2d3be5	-0.010573362
86	0x3e02acb8	0.127612
87	0x3f817836	1.011481
88	0x3ca0c8f8	0.01962708
89	0xbb99bd03	-0.0046917214
90	0x3c401a56	0.011725029
91	0xbe73bfe4	-0.23803669
92	0x3e48af03	0.19598012
93	0x3e1c7d4c	0.15282172
94	0x3a96f46d	0.0011516936
95	0xbcfead79	-0.031088578
96	0xbe5efeb9	-0.21776856
97	0xba76ff37	-0.0009422185
98	0x3f14ffe5	0.58202964
99	0x3f48a814	0.78381467
100	0x3cab39ae	0.020901527
101	0x3f665b77	0.89983314
102	0xbf042a92	-0.5162746
103	0xbc33d2f8	-0.010975592
104	0xbce4eb23	-0.027944153
105	0xbe4db31b	-0.20087855
106	0x3d10e6b2	0.03537626
107	0x3ed99db2	0.42503124
108	0xbef3a66e	-0.47587913
109	0x3e61ae05	0.2203904
110	0x3e93ca6a	0.28865367
111	0x3e6b5e24	0.2298513
112	0xbcbb706f	-0.022880761
113	0x3e3d6291	0.18494631
114	0x3f6b4c66	0.9191345
115	0x3cab99bc	0.02094733
116	0x3e7f82be	0.24952218
117	0x3e1d5099	0.15362777
118	0xbbda1914	-0.0066558216
119	0x3e5c0f0e	0.21490118
120	0xbb1eba55	-0.002421995
121	0xbad95600	-0.0016581416
122	0xbd275604	-0.040853515
123	0x3e3418f1	0.1758764
124	0x3dbc0139	0.09179921
125	0x3d326bde	0.0435599
126	0x3e17118a	0.14752784
127	0x3e9a3102	0.30115515
128	0x3e0b03ed	0.13575716
129	0x3b42cf09	0.0029725453
130	0x3deed328	0.116613686
131	0xbe4fb34f	-0.20283245
132	0x3ea4e645	0.32206932
133	0xbe96015a	-0.29297906
134	0x3eecfee1	0.46288207
135	0xbcca6dfc	-0.024710648
136	0x3d2addb7	0.04171535
137	0x3dd5eb9b	0.10445329
138	0xbd613f16	-0.054991804
139	0xbc264040	-0.010147154
140	0x3e4e9c75	0.20176871
141	0x3d0ea366	0.034823798
142	0x3f379a70	0.7172003
143	0x3c4beee0	0.012447089
144	0x3cbedfdd	0.023300106
145	0x3b83251e	0.0040022274
146	0x3c453949	0.012037584
147	0x3d73cb0c	0.059519812
148	0xbe4dbdd1	-0.2009194
149	0xbc93aa55	-0.018025557
150	0x3e589ce8	0.21153605
151	0xbeaf6854	-0.34259284
152	0xbd2d249c	-0.04227124
153	0xbe15ee0c	-0.14641589
154	0xbcc82b19	-0.024434613
155	0x3f556954	0.8336384
156	0xbca03181	-0.019554855
157	0x3eace509	0.3376849
158	0xbe9016ce	-0.281424
159	0x3d3bc3ca	0.045841016
160	0x3d4584a1	0.048222188
161	0x3ee57843	0.44818315
162	0xbcaa7d21	-0.02081162
163	0x3e3497bd	0.17636009
164	0x3eb8e214	0.36109984
165	0x3e193152	0.1496022
166	0xbcbb8827	-0.022892071
167	0x3be2a472	0.006916576
168	0x3cc30897	0.023807807
169	0x3e61f5d7	0.22066437
170	0x3ea42015	0.32055727
171	0x3b8f44d1	0.004372217
172	0xbdc7c924	-0.097551614
173	0xbcbdd9a4	-0.023175068
174	0x3f3ac5b7	0.7295794
175	0x3d06744c	0.032825753
176	0xbe31331e	-0.17304656
177	0xbea000b5	-0.3125054
178	0x3f15e9ac	0.5855968
179	0x3cc115d0	0.023569971
180	0x3ebb1ed9	0.36546972
181	0xbe7f8d47	-0.24956237
182	0x3d0ee028	0.03488174
183	0xbcb971a8	-0.022637203
184	0x3d2d762f	0.042349037
185	0xbe3d7e40	-0.18505192
186	0x3f0aca8b	0.54215306
187	0x3df24d42	0.11831142
188	0xbf3741cc	-0.71584773
189	0x3e51fcf2	0.20506647
190	0x3def14b0	0.11673868
191	0x3bb72c9b	0.005590034
192	0x3c29eb80	0.010371089
193	0xbe887a69	-0.26655892
194	0xbf112439	-0.56695896
195	0x3a23a85b	0.00062430435
196	0x3e8444b5	0.2583367
197	0xbf85e8c0	-1.0461655
198	0x3d4dfe1e	0.050291173
199	0x3d7ff515	0.062489588
200	0x3d1afb80	0.037837505
201	0xbd0aefd7	-0.033920135
202	0xbf7b2e93	-0.9811794
203	0xbf44b6b9	-0.7684131
204	0xbe8e90f2	-0.2784496
205	0xbe212bc0	-0.15739346
206	0x3eca54b5	0.3951775
207	0xbf25174e	-0.64488685
208	0x3e0ce148	0.13757813
209	0x3db85573	0.09000673
210	0x3f0e5391	0.5559626
211	0x3ed510b9	0.4161432
212	0xbf0de182	-0.5542222
213	0xbadc24ce	-0.0016795637
214	0x3d6d45b4	0.057927802
215	0xbd3eb564	-0.046559706
216	0xbc62cf15	-0.0138433175
217	0xbe35084b	-0.17678945
218	0xbc894f58	-0.016761467
219	0xbe1331ac	-0.14374417
220	0xbcc4a4b8	-0.024004325
221	0x3b867465	0.004103231
222	0xbd8dcb74	-0.06923571
223	0x3c510368	0.01275716
224	0xbd914cb3	-0.07094707
225	0x3e86c147	0.26319334
226	0x3e347be3	0.17625384
227	0xbc973b00	-0.01846075
228	0xbf8025e4	-1.0011563
229	0x3aecd3e7	0.0018068523
230	0x3e02f3b5	0.1278828
231	0x3eafa0c2	0.34302336
232	0xbef7e9c3	-0.48420534
233	0xbc805dff	-0.01566982
234	0x3c082920	0.008310586
235	0x3e45d82e	0.19320747
236	0x3e62e97a	0.22159377
237	0xbccb8715	-0.024844686
238	0xbd4d59c7	-0.050134446
239	0xbd23a6cd	-0.039953995
240	0xbd334415	-0.0437661
241	0xbdebeeb6	-0.1152014
242	0xbd9ca326	-0.076483056
243	0x3e645098	0.22296369
244	0x3d8bc0f0	0.06823909
245	0xbc870f9d	-0.016486937
246	0x3c0fe262	0.008782001
247	0x3ee68103	0.45020303
248	0x3e82d404	0.2555238
249	0x3c127b34	0.008940507
250	0x3e053551	0.1300862
251	0x3ecb4b46	0.39705867
252	0xbf1b9b97	-0.60784286
253	0xbd035306	-0.0320616
254	0xbd07b879	-0.03313491
255	0x3d8d7575	0.06907169

layer_3.bias f4 [6]
0	0x3e254f7b	0.161436
1	0xbe69afc1	-0.22820951
2	0xbe138ad6	-0.1440843
3	0xbe770b11	-0.24125315
4	0x3e154745	0.14577968
5	0x3e38d4bd	0.18049903
